…
n","\n","  def forward(self, x):\n","    x = F.max_pool2d(F.relu(self.conv1(x)), (2,2))\n","    x = F.max_pool2d(F.relu(self.conv2(x)), 2)\n","    x = x.view(-1, self.num_flat_featrues(x))\n","    x = F.relu(self.fc1(x))\n","    x = F.relu(self.fc2(x))\n","    x = self.fc3(x)\n","    return x\n","\n","  def num_flat_featrues(self, x):\n","    size = x.size()[1:]\n","    num_features =  1\n","    for s in size:\n","      num_features *= s\n","    \n","    return num_features\n","  \n","net = Net()\n","print(net)"],"execution_count":9,"outputs":[{"output_type":"stream","text":["Net(\n","  (conv1): Conv2d(1, 6, kernel_size=(3, 3), stride=(1, 1))\n","  (conv2): Conv2d(6, 16, kernel_size=(3, 3), stride=(1, 1))\n","  (fc1): Linear(in_features=400, out_features=120, bias=True)\n","  (fc2): Linear(in_features=120, out_features=84, bias=True)\n","  (fc3): Linear(in_features=84, out_features=10, bias=True)\n",")\n"],"name":"stdout"}]},{"cell_type":"markdown","metadata":{"id":"6CN4Kbd9FliP"},"source":["- `.parameters()` "]},{"cell_type":"code","metadata":{"id":"ZxxZoCC-Fn9b","executionInfo":{"status":"ok","timestamp":1603779394430,"user_tz":-540,"elapsed":9157,"user":{"displayName":"Seung min Yang","photoUrl":"https://lh3.googleusercontent.com/a-/AOh14Ggh6p
…
":16}]},{"cell_type":"code","metadata":{"id":"15cyBDq0DQV2","executionInfo":{"status":"ok","timestamp":1603779424064,"user_tz":-540,"elapsed":38745,"user":{"displayName":"Seung min Yang","photoUrl":"https://lh3.googleusercontent.com/a-/AOh14Ggh6p0khXlZ7IJRTGo-8JTqKaaHhMlpE2ET1kqtYQ=s64","userId":"01177916219728503153"}},"outputId":"5aafcc2a-4b19-4e95-f677-04dbf1603c51","colab":{"base_uri":"https://localhost:8080/","height":143}},"source":["net.parameters"],"execution_count":17,"outputs":[{"output_type":"execute_result","data":{"text/plain":["<bound method Module.parameters of Net(\n","  (conv1): Conv2d(1, 6, kernel_size=(3, 3), stride=(1, 1))\n","  (conv2): Conv2d(6, 16, kernel_size=(3, 3), stride=(1, 1))\n","  (fc1): Linear(in_features=400, out_features=120, bias=True)\n","  (fc2): Linear(in_features=120, out_features=84, bias=True)\n","  (fc3): Linear(in_features=84, out_features=10, bias=True)\n",")>"]},"metadata":{"tags":[]},"execution_count":17}]},{"cell_type":"markdown","metadata":{"id":"5IecfHZiI09W"},"source":["## 모델 테스트"]},{"cell_type":"code","metadata":{"id":"QewXif2NDQYZ","executionInfo":{"status":"ok","timestamp":1603779424064,"user_tz":-540,"elapsed":38738,"user":{"displayName":"Seung min Yang","photoUrl":"https://lh3.googleuserconte
…
","\n","  def forward(self, x):\n","    x = F.max_pool2d(F.relu(self.conv1(x)), (2,2))\n","    x = F.max_pool2d(F.relu(self.conv2(x)), 2)\n","    x = x.view(-1, self.num_flat_featrues(x))\n","    x = F.relu(self.fc1(x))\n","    x = F.relu(self.fc2(x))\n","    x = self.fc3(x)\n","    return x\n","\n","  def num_flat_featrues(self, x):\n","    size = x.size()[1:]\n","    num_features =  1\n","    for s in size:\n","      num_features *= s\n","    \n","    return num_features\n","  \n","net = Net()\n","print(net)"],"execution_count":28,"outputs":[{"output_type":"stream","text":["Net(\n","  (conv1): Conv2d(1, 6, kernel_size=(3, 3), stride=(1, 1))\n","  (conv2): Conv2d(6, 16, kernel_size=(3, 3), stride=(1, 1))\n","  (fc1): Linear(in_features=400, out_features=120, bias=True)\n","  (fc2): Linear(in_features=120, out_features=84, bias=True)\n","  (fc3): Linear(in_features=84, out_features=10, bias=True)\n",")\n"],"name":"stdout"}]},{"cell_type":"code","metadata":{"id":"BndKyGxnSCXK","executionInfo":{"status":"ok","timestamp":1603779435819,"user_tz":-540,"elapsed":50423,"user":{"displayName":"Seung min Yang","photoUrl":"https://lh3.googleusercontent.com/a-/AOh14Ggh6p0khXlZ7IJRTGo-8JTqKaaHhMlpE2ET1kqtYQ=s64","userId":"01177916219728503153"}}},"source":["n
…
