…
201c4410-dfc2-410f-bc8f-e4d919f7d1ae","colab":{"base_uri":"https://localhost:8080/","height":845}},"source":["model.summary()"],"execution_count":40,"outputs":[{"output_type":"stream","text":["Model: \"functional_1\"\n","_________________________________________________________________\n","Layer (type)                 Output Shape              Param #   \n","=================================================================\n","input (InputLayer)           [(None, 28, 28)]          0         \n","_________________________________________________________________\n","flatten (Flatten)            (None, 784)               0         \n","_________________________________________________________________\n","hidden1 (Dense)              (None, 256)               200960    \n","_________________________________________________________________\n","batch_normalization (BatchNo (None, 256)               1024      \n","_________________________________________________________________\n","activation (Activation)      (None, 256)               0         \n","_________________________________________________________________\n","dropout (Dropout)            (None, 256)               0         \n","_________________________________________________________________\n","hidden2 (Dense)              (None, 100)               25700     \n","_________________________________________________________________\n","batch_normalization_1 (Batch (None, 100)               400       \n","_________________________________________________________________\n","activation_1 (Activation)    (None, 100)               0         \n","_________________________________________________________________\n","dropout_1 (Dropout)          (None, 100)               0         \n","_________________________________________________________________\n","hidden3 (Dense)              (None, 100)               10100     \n","_________________________________________________________________\n","batch_normalization_2 (Batch (None, 100)               400       \n","_________________________________________________________________\n","activation_2 (Activation)    (None, 100)               0         \n","_________________________________________________________________\n","dropout_2 (Dropout)          (None, 100)               0         \n","_________________________________________________________________\n","hidden4 (Dense)              (None, 50)                5050      \n","_________________________________________________________________\n","batch_normalization_3 (Batch (None, 50)                200       \n","_________________________________________________________________\n","activation_3 (Activation)    (None, 50)                0         \n","_________________________________________________________________\n","dropout_3 (Dropout)          (None, 50)                0         \n","_________________________________________________________________\n","output (Dense)               (None, 10)                510       \n","=================================================================\n","Total params: 244,344\n","Trainable params: 243,332\n","Non-trainable params: 1,012\n","_________________________________________________________________\n"],"name":"stdout"}]},{"cell_type":"markdown","metadata":{"id":"joOtrZSXRAFC"},"source":["### 모델 컴파일\n","- 평가(metrics)방식의 다른 방법\n","  - `tf.keras.metrics.Mean`\n",
…
