…
y',\n","                metrics=['accuracy'])\n","  \n","  return model\n","\n","model_1 = build_model()\n","model_1.summary()"],"execution_count":6,"outputs":[{"output_type":"stream","text":["Model: \"functional_1\"\n","_________________________________________________________________\n","Layer (type)                 Output Shape              Param #   \n","=================================================================\n","input_1 (InputLayer)         [(None, 28, 28, 1)]       0         \n","_________________________________________________________________\n","conv2d (Conv2D)              (None, 26, 26, 32)        320       \n","_________________________________________________________________\n","conv2d_1 (Conv2D)            (None, 24, 24, 64)        18496     \n","_________________________________________________________________\n","conv2d_2 (Conv2D)            (None, 22, 22, 64)        36928     \n","_________________________________________________________________\n","flatten (Flatten)            (None, 30976)             0         \n","_________________________________________________________________\n","dense (Dense)                (None, 128)               3965056   \n","_________________________________________________________________\n","dense_1 (Dense)              (None, 64)                8256      \n","_________________________________________________________________\n","dense_2 (Dense)              (None, 10)                650       \n","=================================================================\n","Total params: 4,029,706\n","Trainable params: 4,029,706\n","Non-trainable params: 0\n","_________________________________________________________________\n"],"name":"stdout"}]},{"cell_type":"markdown","metadata":{"id":"0uCIkYz6bBKP"},"source":["### 모델 학습\n","- 런타임 GPU로 설정"]},{"cell_type":"code","metadata":{"id":"ksTI
…
,\n","                metrics=['accuracy'])\n","  \n","  return model\n","\n","model_2 = build_model2()\n","model_2.summary()"],"execution_count":11,"outputs":[{"output_type":"stream","text":["Model: \"functional_3\"\n","_________________________________________________________________\n","Layer (type)                 Output Shape              Param #   \n","=================================================================\n","input_2 (InputLayer)         [(None, 28, 28, 1)]       0         \n","_________________________________________________________________\n","conv2d_3 (Conv2D)            (None, 26, 26, 32)        320       \n","_________________________________________________________________\n","max_pooling2d (MaxPooling2D) (None, 13, 13, 32)        0         \n","_________________________________________________________________\n","conv2d_4 (Conv2D)            (None, 11, 11, 64)        18496     \n","_________________________________________________________________\n","max_pooling2d_1 (MaxPooling2 (None, 5, 5, 64)          0         \n","_________________________________________________________________\n","conv2d_5 (Conv2D)            (None, 3, 3, 64)          36928     \n","_________________________________________________________________\n","max_pooling2d_2 (MaxPooling2 (None, 1, 1, 64)          0         \n","_________________________________________________________________\n","flatten_1 (Flatten)          (None, 64)                0         \n","_________________________________________________________________\n","dense_3 (Dense)              (None, 128)               8320      \n","_________________________________________________________________\n","dropout (Dropout)            (None, 128)               0         \n","_________________________________________________________________\n","dense_4 (Dense)              (None, 64)                8256      \n","_________________________________________________________________\n","dropout_1 (Dropout)          (None, 64)                0         \n","_________________________________________________________________\n","dense_5 (Dense)              (None, 10)                650       \n","=================================================================\n","Total params: 72,970\n","Trainable params: 72,970\n","Non-trainable params: 0\n","_________________________________________________________________\n"],"name":"stdout"}]},{"cell_type":"markdown","metadata":{"id":"k6Z_xs9VbBKa"},"source":["### 모델 재학습"]},{"cell_type":"code","metadata":{"id":"7bWh_jrBbBKb","executionInf
…
\n","                metrics=['accuracy'])\n","  \n","  return model\n","\n","model_3 = build_model3()\n","model_3 .summary()"],"execution_count":16,"outputs":[{"output_type":"stream","text":["Model: \"functional_5\"\n","_________________________________________________________________\n","Layer (type)                 Output Shape              Param #   \n","=================================================================\n","input_3 (InputLayer)         [(None, 28, 28, 1)]       0         \n","_________________________________________________________________\n","conv2d_6 (Conv2D)            (None, 28, 28, 32)        320       \n","_________________________________________________________________\n","conv2d_7 (Conv2D)            (None, 26, 26, 64)        18496     \n","_________________________________________________________________\n","max_pooling2d_3 (MaxPooling2 (None, 13, 13, 64)        0         \n","_________________________________________________________________\n","dropout_2 (Dropout)          (None, 13, 13, 64)        0         \n","_________________________________________________________________\n","conv2d_8 (Conv2D)            (None, 13, 13, 128)       73856     \n","_________________________________________________________________\n","conv2d_9 (Conv2D)            (None, 11, 11, 256)       295168    \n","_________________________________________________________________\n","max_pooling2d_4 (MaxPooling2 (None, 5, 5, 256)         0         \n","_________________________________________________________________\n","dropout_3 (Dropout)          (None, 5, 5, 256)         0         \n","_________________________________________________________________\n","flatten_2 (Flatten)          (None, 6400)              0         \n","_________________________________________________________________\n","dense_6 (Dense)              (None, 256)               1638656   \n","_________________________________________________________________\n","dropout_4 (Dropout)          (None, 256)               0         \n","_________________________________________________________________\n","dense_7 (Dense)              (None, 100)               25700     \n","_________________________________________________________________\n","dropout_5 (Dropout)          (None, 100)               0         \n","_________________________________________________________________\n","dense_8 (Dense)              (None, 10)                1010      \n","=================================================================\n","Total params: 2,053,206\n","Trainable params: 2,053,206\n","Non-trainable params: 0\n","_________________________________________________________________\n"],"name":"stdout"}]},{"cell_type":"markdown","metadata":{"id":"djjcLc8EbBKl"},"source":["## 모델 학습 및 결과 시각화"]},{"cell_type":"code","metadata":{"id":"AXtahlEabBKl","
…
