…
rcontent.com/a-/AOh14Ggh6p0khXlZ7IJRTGo-8JTqKaaHhMlpE2ET1kqtYQ=s64","userId":"01177916219728503153"}},"outputId":"f741abb0-0fab-4894-aa3e-4fe090f38ae6","colab":{"base_uri":"https://localhost:8080/","height":413}},"source":["model = build_model()\n","model.summary()"],"execution_count":62,"outputs":[{"output_type":"stream","text":["Model: \"sequential_9\"\n","_________________________________________________________________\n","Layer (type)                 Output Shape              Param #   \n","=================================================================\n","embedding_6 (Embedding)      (None, 500, 32)           320000    \n","_________________________________________________________________\n","conv1d (Conv1D)              (None, 494, 32)           7200      \n","_________________________________________________________________\n","max_pooling1d (MaxPooling1D) (None, 70, 32)            0         \n","_________________________________________________________________\n","conv1d_1 (Conv1D)            (None, 66, 32)            5152      \n","_________________________________________________________________\n","max_pooling1d_1 (MaxPooling1 (None, 13, 32)            0         \n","_________________________________________________________________\n","global_max_pooling1d (Global (None, 32)                0         \n","_________________________________________________________________\n","dense_6 (Dense)              (None, 1)                 33        \n","=================================================================\n","Total params: 332,385\n","Trainable params: 332,385\n","Non-trainable params: 0\n","_________________________________________________________________\n"],"name":"stdout"}]},{"cell_type":"markdown","metadata":{"id":"0qUbPGdmpHpQ"},"source":["### 모델 학습"]},{"cell_type":"code","metadata":{"id":"xcCgjLHvonWB","executionI
…
